…
ely, regressor inference is highly efficient: processing 2,225 test cases takes only 5–6 minutes on a single A6000 GPU, which is negligible compared to the LVLM’s own inference time. This efficiency makes the IoU regressor a practical and scalable solution for real-time bounding box selection in production environments. Table 7: Layer Summary of the Attention-IoU Regressor trained on Qwen2.5-VL attention maps.                                           

> Layer (type:depth-idx) Output Shape Param #
> Attention-IoU Regressor [1, 1] –
> CoordinateAttentionCNN Branch (repeated 4×):
> Conv2d: 1-1 [1, 64, 24, 24] 451,648 BatchNorm2d: 1-2 [1, 64, 24, 24] 128 ReLU: 1-3 [1, 64, 24, 24] –MaxPool2d: 1-4 [1, 64, 12, 12] –Conv2d: 1-5 [1, 128, 12, 12] 73,856 BatchNorm2d: 1-6 [1, 128, 12, 12] 256 ReLU: 1-7 [1, 128, 12, 12] –MaxPool2d: 1-8 [1, 128, 6, 6] –Conv2d: 1-9 [1, 256, 6, 6] 295,168 BatchNorm2d: 1-10 [1, 256, 6, 6] 512 ReLU: 1-11 [1, 256, 6, 6] –AdaptiveAvgPool2d: 1-12 [1, 256, 1, 1] –Linear: 1-13 [1, 128] 32,896
> Fusion MLP:
> Linear: 2-1 [1, 256] 131,328 BatchNorm1d: 2-2 [1, 256] 512 ReLU: 2-3 [1, 256] –Linear: 2-4 [1, 128] 32,896 ReLU: 2-5 [1, 128] –Linear: 2-6 [1, 1] 129

# B. Differential Entropy of a Gaussian Random Variable 

This section supplements the result used in Section 3.2 of the main paper by providing the full derivation of the conditional Gaussian entropy. We derive the standard result used in the main text: 

H(Y | fθ(A)) = 12 log(2 πeσ 2),

16 Table 8: Parameters and Memory Usage of the Attention-IoU Regressor trained on Qwen2.5-VL attention maps. 
…
Since the expression does not depend on z, the conditional entropy is 

H(Y | Z) = 12 log(2 πeσ 2).

# C. Complete Attention Map Visualizations 

Below we provide the complete attention map visualizations of Qwen2.5-VL and InternVL-3.5 corre-sponding to Figure 3 in the main paper. These figures show all layers and coordinate-specific attention maps used in our analysis. 17 Table 9: Layer Summary of the Attention-IoU Regressor trained on InternVL-3.5 attention maps. 

Layer (type:depth-idx) Output Shape Param # 

Attention-IoU Regressor [1, 1] –

CoordinateAttentionCNN Branch (4× identical branches): 

Conv2d: 1-1 [1, 64, 16, 16] 663,616 BatchNorm2d: 1-2 [1, 64, 16, 16] 128 ReLU: 1-3 [1, 64, 16, 16] –Dropout2d: 1-4 [1, 64, 16, 16] –MaxPool2d: 1-5 [1, 64, 8, 8] –Conv2d: 1-6 [1, 128, 8, 8] 73,856 BatchNorm2d: 1-7 [1, 128, 8, 8] 256 ReLU: 1-8 [1, 128, 8, 8] –Dropout2d: 1-9 [1, 128, 8, 8] –MaxPool2d: 1-10 [1, 128, 4, 4] –Conv2d: 1-11 [1, 256, 4, 4] 295,168 BatchNorm2d: 1-12 [1, 256, 4, 4] 512 ReLU: 1-13 [1, 256, 4, 4] –AdaptiveAvgPool2d: 1-14 [1, 256, 1, 1] –Flatten: 1-15 [1, 256] –Dropout: 1-16 [1, 256] –Linear: 1-17 [1, 128] 32,896 

Fusion MLP: 

Linear: 2-1 [1, 256] 131,328 ReLU: 2-2 [1, 256] –BatchNorm1d: 2-3 [1, 256] 512 Dropout: 2-4 [1, 256] –Linear: 2-5 [1, 128] 32,896 ReLU: 2-6 [1, 128] –Dropout: 2-7 [1, 128] –Linear: 2-8 [1, 1] 129 

Table 10: Parameters and Memory Usage of the Attention-IoU Regressor trained on InternVL-3.5 attention maps. 

Description Value 

Total parameters 4,430,593 Trainable parameters 4,430,593 Non-trainable parameters 0Total mult-adds (M) 717.64 Input size (MB) 4.72 Forward/backward pass size (MB) 1.84 Params size (MB) 17.72 Estimated total size (MB) 24.29 

18 (a) Attention maps across all layers for x1 coordinate prediction. 
…
